lstm_model.pth (torch, 884326 bytes, 6 tensors)

lstm.weight_ih_l0 f4 [512, 300]
0	0xbe03e4c3	-0.12880234
1	0xbbef208e	-0.007297582
2	0x3d3055d4	0.043050602
3	0xbde445b3	-0.111461066
4	0x3e2afc2e	0.16697761
5	0xbda94a60	-0.08266139
6	0xbdc616b1	-0.09672297
7	0x3d761057	0.060074177
8	0x3d7f0db7	0.06226894
9	0x3c76f480	0.015072942
10	0xbd114ce9	-0.035473738
11	0x3da97db6	0.082759306
12	0xbd42b5bd	-0.0475366
13	0x3df105f8	0.117687166
14	0xbd1623bb	-0.03665517
15	0x3e293500	0.16524124
16	0x3e96c052	0.29443604
17	0x3c176a60	0.00924167
18	0xbd5cc9e2	-0.053903468
19	0x3d4f0bf6	0.050548516
20	0x3ca753f0	0.020425767
21	0x3d4f3a17	0.05059251
22	0xbdd551ad	-0.10415969
23	0x3c977040	0.018486142
24	0xbc121fa8	-0.00891868
25	0x3df6da56	0.12053363
26	0xbd1f8145	-0.03894164
27	0x3d906fe1	0.07052589
28	0x3dcee102	0.101015106
29	0xbc0df56f	-0.008664473
30	0x3df35a5a	0.118824676
31	0xbddcdd7b	-0.107844315
32	0x3c6d1f76	0.014472833
33	0x3d30618c	0.043061778
34	0xbddab0c7	-0.10678249
35	0xbe32ccc6	-0.17460927
36	0x3dd4c5fc	0.10389325
37	0x3c843c7d	0.016142124
38	0xbcc4032e	-0.023927297
39	0xbd922097	-0.07135122
40	0x3cefe746	0.029285084
41	0x3d545b3a	0.051844813
42	0xbc96b355	-0.018396059
43	0xbdd42339	-0.10358281
44	0x3da545b5	0.08069936
45	0x3d7e7c18	0.062130064
46	0x3dbdae2c	0.09261736
47	0xbd7ca039	-0.061676238
48	0xbe6441e1	-0.22290756
49	0x3e63ec9c	0.22258228
50	0xbd295d1c	-0.04134856
51	0xbd7992a1	-0.06093085
52	0x3e164180	0.14673424
53	0xbcd20825	-0.02563865
54	0x3d597121	0.053086404
55	0x3e25526a	0.1614472
56	0xbd06a6ac	-0.032873794
57	0x3d68c0d9	0.05682454
58	0xbd86c8d2	-0.06581272
59	0xbe2369c5	-0.15958317
60	0x3d551e1b	0.052030664
61	0x3d6420c6	0.055695318
62	0xbce91c1d	-0.028455788
63	0xbd3561d3	-0.044282746
64	0x3c3d0bd5	0.0115384655
65	0xbd8e1faa	-0.06939633
66	0x3dc81c04	0.097709686
67	0xbd541719	-0.05177984
68	0x3dc78a7c	0.09743211
69	0xbd8a9e17	-0.067684345
70	0xbd62c8f7	-0.055367436
71	0xbe11816c	-0.14209527
72	0xbd03ef92	-0.032210894
73	0x3c54e74f	0.012994601
74	0xbd36f978	-0.044671506
75	0xbdb9cd90	-0.09072411
76	0xbd8b26fa	-0.067945436
77	0xbccce4d0	-0.02501145
78	0xbe41011d	-0.18848081
79	0x3d3f82fb	0.046755772
80	0xbe3798a9	-0.17929329
81	0xbca69a53	-0.02033726
82	0x3e65e477	0.22450434
83	0x3d30b92e	0.04314535
84	0xbda058e9	-0.07829458
85	0x3df11e54	0.11773363
86	0xbd8bfc91	-0.068352826
87	0xbc8e28f0	-0.017353505
88	0x3ce71ba8	0.02821143
89	0x3dafb7b4	0.085799605
90	0xbda4b71b	-0.08042737
91	0xbe113ebf	-0.14184092
92	0xbd880717	-0.06641977
93	0xbdb38b53	-0.08766808
94	0x3e40a73d	0.18813796
95	0xbce4717d	-0.027886147
96	0x3c80996a	0.015698154
97	0xbd104901	-0.035225872
98	0x3d00f38f	0.031482276
99	0x3e0d8e49	0.13823809
100	0x3d30af71	0.043136064
101	0xbdd0a20e	-0.101871595
102	0x3cb7cb77	0.022435887
103	0xbe23df2f	-0.16003107
104	0x3ce4d712	0.027934585
105	0xbe07371e	-0.1320462
106	0x3e3abc9a	0.18236008
107	0xbe0b6f25	-0.13616617
108	0xbe34b41c	-0.17646831
109	0x3d6c0ef8	0.057631463
110	0x3d2f7250	0.042833626
111	0xbe0fff5c	-0.14062256
112	0xbd239109	-0.03993324
113	0x3d9b6430	0.075874686
114	0x3d8a2560	0.0674541
115	0x3de1aa35	0.110187925
116	0x3e836121	0.2566004
117	0x3d84e273	0.06488504
118	0x3d58d82e	0.05294054
119	0x3dc018ac	0.09379706
120	0xbc3aeafd	-0.011408565
121	0xbe10df2d	-0.14147635
122	0xbd6651f9	-0.05623052
123	0xbddf3410	-0.10898602
124	0xbd8044b3	-0.06263103
125	0xbd6cbf47	-0.057799604
126	0xbd568c05	-0.052379627
127	0xbdd6e6e3	-0.10493257
128	0x3c1e84c0	0.009675205
129	0x3d13db81	0.036098007
130	0x3d2a0468	0.04150811
131	0x3d194c3c	0.03742622
132	0x3d948282	0.07251455
133	0xbd971209	-0.07376487
134	0x3e9a43fd	0.30129996
135	0x3b19d717	0.002347415
136	0xbe4491c9	-0.19196238
137	0x3e4ed74a	0.20199314
138	0x3cd39c15	0.025831262
139	0x3cc18e9e	0.023627575
140	0xbb57649c	-0.0032866364
141	0x3d639b94	0.055568293
142	0x3db6f068	0.089325726
143	0x3d51f6ac	0.051260635
144	0x3d2eabee	0.042644434
145	0x3dda0c71	0.10646904
146	0xbd0327d6	-0.032020412
147	0x3c205852	0.009786682
148	0xbdf9d995	-0.121997036
149	0x3de663ec	0.11249527
150	0x3e1b8a2b	0.15189426
151	0x3deb2c71	0.11483086
152	0xbca8fe88	-0.020629182
153	0x3dd3b942	0.103380695
154	0x3c97dfc2	0.018539313
155	0x3d39cf08	0.045363456
156	0xbd5a9a5e	-0.053369872
157	0x3d1d2059	0.038360927
158	0xbe0e3367	-0.13886796
159	0xbc8cdc71	-0.017194958
160	0x3b44a8cd	0.003000784
161	0xbd5c6c3f	-0.05381417
162	0xbdc380da	-0.09546061
163	0xbd9fd31b	-0.07803937
164	0x3e38827a	0.18018523
165	0x3ca9c5f9	0.020724284
166	0x3e4eb913	0.20187788
167	0xbc370f37	-0.011173061
168	0x3da476af	0.080304496
169	0x3d9158c6	0.0709701
170	0xbe58fffc	-0.211914
171	0xbc97eef3	-0.018546557
172	0xbda92bea	-0.08260329
173	0xbcf6fabf	-0.030148862
174	0xbdc99506	-0.09842877
175	0x39df6e6b	0.00042616142
176	0x3d8ac14e	0.06775151
177	0xbd99f399	-0.07517166
178	0x3d36138d	0.04445224
179	0xbd8d55ed	-0.06901155
180	0x3d5afab5	0.05346175
181	0x3e1c5de2	0.15270188
182	0xbd5252ed	-0.051348615
183	0x3e273c85	0.1633168
184	0x3e01c6c4	0.1267348
185	0x3db3fdbc	0.0878863
186	0x3d6015f7	0.054708447
187	0x3daf3a63	0.08556058
188	0xbda39c2b	-0.07988771
189	0xbd70ed67	-0.058820155
190	0xbd25e5ab	-0.04050223
191	0x3e799dce	0.24376604
192	0xbd75dbde	-0.060024135
193	0xbe198403	-0.14991765
194	0x3e2766b3	0.1634777
195	0xbe046fea	-0.12933317
196	0xbdacb22d	-0.08432422
197	0xbe2e3fa6	-0.17016467
198	0xbd39deac	-0.045378372
199	0x3d929d42	0.07158901
200	0xbe7e4986	-0.24832734
201	0xbd5b28e5	-0.053505797
202	0xbd7fd553	-0.0624593
203	0xbe3d9a09	-0.18515791
204	0x3d139fb5	0.03604098
205	0x3db71a0a	0.089405134
206	0x3e0959b3	0.13413124
207	0xbe17fd14	-0.14842635
208	0x3bc3cc2a	0.005975266
209	0x3cc299b0	0.023754925
210	0x3df77ed7	0.1208474
211	0xbd440661	-0.047857646
212	0xbd93d981	-0.0721922
213	0x3d311fc7	0.043243196
214	0xbcb26fa8	-0.021781757
215	0xbcaddaa2	-0.021222416
216	0xbd71ea1c	-0.059061155
217	0x3bd1735b	0.0063919253
218	0x3dc3ce11	0.095607884
219	0x3d1886a1	0.037237767
220	0xbcfa6f53	-0.030570662
221	0x3e08d478	0.133623
222	0x3d2fc025	0.042907853
223	0x3d68cc54	0.056835487
224	0x3cc079e6	0.023495626
225	0x3dca0b89	0.098654814
226	0xbdb7c42a	-0.08972962
227	0xbd23b366	-0.03996601
228	0xbd5d7f64	-0.054076567
229	0xbd5a45d2	-0.053289242
230	0xbd6d0f79	-0.057876084
231	0x3d505bdf	0.050868865
232	0xbe367c85	-0.17820938
233	0xbdfdfde1	-0.12401939
234	0xbddf6c87	-0.10909372
235	0xbba021d8	-0.004886847
236	0x3bb8b14c	0.00563637
237	0xbd7b6cc8	-0.06138304
238	0xbd181740	-0.037131548
239	0x3e14747c	0.1449756
240	0x3dd6c2b2	0.10486354
241	0xbda5470e	-0.08070193
242	0xbdfb60b0	-0.12274301
243	0x3d2cc737	0.042182174
244	0x3b49b4ee	0.0030778009
245	0x3d28fac4	0.041254774
246	0xbd11ea3e	-0.03562378
247	0x3c554925	0.013017927
248	0x3d86a8be	0.06575154
249	0x3e1a2f87	0.15057193
250	0x3d12638c	0.035739467
251	0x3d939310	0.07205784
252	0xbd4ca8da	-0.049965717
253	0x3e9114d4	0.28336203
254	0x3de52064	0.11187819
255	0x3d8db19f	0.06918644

lstm.weight_hh_l0 f4 [512, 128]
0	0xbdd45d62	-0.10369374
1	0xbcd949ba	-0.026524413
2	0xbdc60b90	-0.09670174
3	0x3dcfc798	0.10145491
4	0x3c8d5a79	0.017255055
5	0x3d02b28f	0.031908568
6	0x3c5cdfc9	0.013481089
7	0x3c30fb01	0.0108020315
8	0x3b3e7539	0.002906157
9	0x3c5112e1	0.012760849
10	0xbc4171a5	-0.01180688
11	0xbd3541b8	-0.044252127
12	0x3d9131c1	0.07089568
13	0x3c952dd4	0.01821033
14	0xbcca3e85	-0.024688015
15	0x3d412137	0.047150817
16	0xbca7edf1	-0.020499201
17	0x3de96940	0.11397028
18	0x3df7ac1e	0.120933756
19	0x3cbcbbb6	0.023038726
20	0x3c83b22e	0.016076174
21	0x3d90bca4	0.0706723
22	0xbcfc1995	-0.030773917
23	0xbb667e3a	-0.0035170452
24	0xbc3fd524	-0.0117085315
25	0x3d50714a	0.05088929
26	0xbce41b53	-0.02784506
27	0xbc388664	-0.01126251
28	0xbcb01c35	-0.021497825
29	0xbdc7b0a7	-0.09750491
30	0x3d2b6718	0.041846365
31	0xbdac7b4f	-0.08421957
32	0xbdc6e6d4	-0.09711996
33	0x3dcfb9ef	0.10142886
34	0xbcea4054	-0.028595127
35	0xbd7a3413	-0.061084818
36	0x3a932367	0.0011225761
37	0xbc4a7261	-0.012356372
38	0x3c1cc4d7	0.009568415
39	0x3d0104ee	0.031498842
40	0xbd06e49a	-0.032932855
41	0x3d875ac5	0.0660911
42	0xbd05d454	-0.032673195
43	0xbc382a40	-0.011240542
44	0xbcacd78a	-0.02109887
45	0x3cfb42c1	0.03067148
46	0xbd3d2c80	-0.046185017
47	0xbd41189a	-0.047142603
48	0xbc85fcc8	-0.016355887
49	0x3d5430da	0.0518044
50	0xbcd8f459	-0.026483702
51	0x3dd8c01f	0.10583519
52	0xbd72d7a2	-0.059287675
53	0xbdba16aa	-0.09086354
54	0x3dd48bbb	0.10378214
55	0x3d1d5a20	0.038416028
56	0x3c96058f	0.018313197
57	0x3d110cc0	0.03541255
58	0xbcf3ea30	-0.029774755
59	0x3d916ee8	0.07101232
60	0xbd98fa5d	-0.07469628
61	0xbcaa6c52	-0.020803604
62	0x3ce17fc5	0.027526746
63	0x3d67dcf3	0.056607198
64	0x3d80c5b2	0.062877074
65	0xbdb87a75	-0.09007732
66	0xbd4387bf	-0.04773688
67	0x3cf2b378	0.029626593
68	0x3d62a9f1	0.05533785
69	0x3c47820e	0.012177004
70	0xbaa42fc2	-0.001252644
71	0x3d5df5a3	0.054189336
72	0xbd468c34	-0.048473552
73	0xbc1a3840	-0.009412825
74	0xbd2e1566	-0.042500876
75	0xbd51584c	-0.051109597
76	0xbcf7ab49	-0.030233042
77	0x3e050b3d	0.12992568
78	0x3d379364	0.044818297
79	0xbd3afab2	-0.045649238
80	0xbdc359b3	-0.09538593
81	0x3d16584a	0.036705293
82	0xbc74318e	-0.014904393
83	0x3d4d2c0b	0.05009083
84	0xbd1c379a	-0.038138963
85	0x3c197db9	0.0093683535
86	0xbca281d7	-0.019837303
87	0xbdc6a2fc	-0.096990556
88	0xbd9b9560	-0.075968504
89	0x3d8aa669	0.067700215
90	0xbdc27862	-0.094956174
91	0x3cef79c1	0.029232861
92	0xbcd62700	-0.026141644
93	0x3ca0a44d	0.019609595
94	0xbc0f7a15	-0.008757134
95	0x3dc849bd	0.097796895
96	0x3d8a984f	0.06767332
97	0xbd081ce1	-0.033230666
98	0x3d9d3c42	0.07677509
99	0x3dcf9dde	0.10137533
100	0xbd729386	-0.05922272
101	0xbd30855b	-0.043095928
102	0xba65ee3e	-0.00087711576
103	0xbdaee8bc	-0.08540484
104	0x3dda7b1d	0.10668013
105	0xbd95f0e7	-0.07321339
106	0x3db52738	0.08845371
107	0xbcc75d76	-0.024336558
108	0x3dc8a36c	0.09796795
109	0x3cdbe066	0.0268404
110	0x3e08bcb3	0.13353233
111	0x3d00d34d	0.031451512
112	0x3d304ab4	0.043039992
113	0xbdd790af	-0.10525643
114	0xbe00ea3b	-0.12589352
115	0xbd8646e2	-0.065564886
116	0x3da5c5a7	0.0809434
117	0xbcf2d6a0	-0.029643357
118	0xbdafa93f	-0.08577203
119	0x3c0d6fd1	0.008632616
120	0x3cb9762f	0.022639362
121	0xbe00186a	-0.12509313
122	0x3dc1416c	0.09436306
123	0xbb9b9092	-0.0047474587
124	0xbd1ab6b9	-0.037771914
125	0xbd99f01d	-0.07516501
126	0xbc2a0332	-0.010376738
127	0x3c3f32ea	0.011669854
128	0x3d7cf51e	0.0617572
129	0x3d2d9e2c	0.042387173
130	0xbd4a72f4	-0.049426034
131	0x3da14e0d	0.07876215
132	0x3c488aa7	0.012240089
133	0xbd9decbe	-0.077111706
134	0x3d5abf94	0.05340536
135	0xbd2251f5	-0.03962894
136	0xbd33246b	-0.043735903
137	0x3d21aae3	0.03946961
138	0x3dde9b82	0.108695045
139	0x3d7005f3	0.058599424
140	0x3cac79a5	0.021054098
141	0x3a86884e	0.0010264011
142	0xbd341d1e	-0.04397308
143	0x3bea0432	0.0071416134
144	0xbd95a4f7	-0.07306855
145	0x3d809975	0.062792696
146	0xbd614f96	-0.05500754
147	0x3d1769c0	0.036966085
148	0x3d5042a6	0.05084481
149	0xbd07e6e9	-0.033179197
150	0x3dc0c532	0.09412612
151	0x3d2c06a3	0.041998517
152	0x3bd09b4a	0.006366168
153	0x3c590eaf	0.01324813
154	0x3d7f6c35	0.062359054
155	0x3d5b076b	0.05347387
156	0x3d5f7a9d	0.054560293
157	0xbcad9928	-0.021191195
158	0x3d826db2	0.06368579
159	0xbd302c40	-0.04301095
160	0xbdbe757b	-0.09299751
161	0xbd8d1297	-0.06888311
162	0x3dfc749a	0.123269275
163	0xbde09335	-0.109655775
164	0x3dcbd8b4	0.09953442
165	0x3d524604	0.051336303
166	0xbda8572e	-0.08219753
167	0xbdbcd47b	-0.09220215
168	0xbc6866af	-0.014184638
169	0x3d5d2b13	0.053996157
170	0xbcaf1803	-0.021373754
171	0xbbc00b03	-0.0058606877
172	0x3d79a431	0.0609476
173	0xbca1a8cb	-0.019733807
174	0x3d54b7df	0.051933166
175	0x3cfe787c	0.03106331
176	0x3cf1e006	0.029525768
177	0xbddba96b	-0.10725673
178	0x3dabcd88	0.08388811
179	0x3ccd368a	0.02505042
180	0xbd39b421	-0.0453378
181	0x3d6ee3b7	0.058322635
182	0xbdc04acf	-0.093892686
183	0xbd2c9444	-0.042133585
184	0x3d2a9b8c	0.041652247
185	0xbd1d52ab	-0.038408916
186	0x3c2dadef	0.010600551
187	0x3c99fc21	0.018796982
188	0xbd174154	-0.036927536
189	0x3c9de6db	0.01927512
190	0x3b2099e0	0.002450578
191	0x3d0b4303	0.033999454
192	0x3d847d07	0.064691596
193	0xbbb7addd	-0.005605443
194	0xbd92ed38	-0.07174152
195	0xbcf12447	-0.029436244
196	0x3d55057c	0.052007183
197	0xbcb82ee8	-0.022483304
198	0x3cc76dc6	0.024344336
199	0x3d3bef59	0.045882557
200	0xbda84665	-0.08216552
201	0x3d893b54	0.06700769
202	0xbd0c8b86	-0.034312747
203	0xbd91503c	-0.070953816
204	0xbd7d5514	-0.061848715
205	0x3d3d1457	0.046161976
206	0xbbcaf038	-0.006193187
207	0x3da5cf7b	0.080962144
208	0xbbd9e6dc	-0.006649835
209	0x3d8e3d60	0.069453
210	0xbb966732	-0.0045899386
211	0x3d2f2b31	0.0427658
212	0x3d97cd57	0.07412212
213	0xbd197697	-0.03746661
214	0x3daeee43	0.085415386
215	0x3d7da0b3	0.061920833
216	0xbd091aeb	-0.033472937
217	0x3d3fedba	0.046857573
218	0x3b75834b	0.003746229
219	0xbda9b138	-0.08285755
220	0xbd5d59f1	-0.054040853
221	0xbd4969fb	-0.049173336
222	0xbd6afc2d	-0.0573694
223	0xbd48bce3	-0.04900826
224	0x3b94ca33	0.0045407056
225	0x3d601018	0.05470285
226	0xbd983f16	-0.07433908
227	0x3dcebc62	0.10094525
228	0x3d8be820	0.06831384
229	0xbd987952	-0.07445015
230	0xbc6d8835	-0.014497806
231	0xbd4d2e6a	-0.050093092
232	0xbcc69a75	-0.024243573
233	0xbd79849a	-0.060917474
234	0xbd11783e	-0.035515063
235	0xbd0f07f3	-0.03491969
236	0xbd80426e	-0.062626705
237	0xbd47bce7	-0.048764136
238	0x3d07aad3	0.033121895
239	0x3a12fc98	0.00056070974
240	0x3d95e9eb	0.07320007
241	0x3b96c31a	0.0046008946
242	0xbc7dfed1	-0.0155026475
243	0x3da49ddb	0.08037921
244	0xbc03e755	-0.008050759
245	0x3d346a66	0.044046782
246	0xbca93886	-0.020656835
247	0x3da5b381	0.08090878
248	0xbd485295	-0.04890688
249	0xbd2000fc	-0.03906344
250	0xbbbdede3	-0.0057961806
251	0x3c4f21d1	0.01264234
252	0x3d4f1b40	0.050563097
253	0x3d81888c	0.063248724
254	0x3b64c09c	0.0034904843
255	0x3cf35d9e	0.029707726

lstm.bias_ih_l0 f4 [512]
0	0x3ca372d4	0.019952215
1	0xbc9ffe0a	-0.019530315
2	0xbe0b4c0f	-0.13603233
3	0xbbdeba52	-0.0067971135
4	0xbc3e8aa9	-0.011629739
5	0xbcd5f273	-0.026116585
6	0xbda0d588	-0.07853228
7	0x3d0f11b3	0.03492899
8	0xbdbf259e	-0.09333347
9	0xbccdd4ef	-0.025125949
10	0x3d0eb7de	0.03484332
11	0xbd83d80e	-0.064376935
12	0xbdb55387	-0.08853822
13	0xbe46a92d	-0.19400473
14	0xbe1af73b	-0.15133373
15	0x3d0a0e7b	0.033705216
16	0xbd4f731b	-0.050646883
17	0xbe0afe88	-0.13573658
18	0x3d7be82b	0.06150071
19	0xbdbb888c	-0.091569036
20	0x3b6a9472	0.0035794047
21	0xbddb07ba	-0.10694833
22	0xbe16d1cb	-0.14728467
23	0xbe1d180e	-0.15341207
24	0xbd982eae	-0.074307784
25	0xbdc5dfee	-0.09661852
26	0x3c9b99ff	0.01899433
27	0xbdc4c839	-0.09608502
28	0xbc939fb1	-0.018020483
29	0x3ceb5cf7	0.028730853
30	0xbd96dd55	-0.073664345
31	0xbdbca58f	-0.09211265
32	0xbd4baa12	-0.04972274
33	0xbe3b7c09	-0.18309034
34	0xbc5a167c	-0.013311025
35	0xbd312edf	-0.04325759
36	0xbded8d1f	-0.11599182
37	0xbdcb518f	-0.099276654
38	0x3b27efc8	0.0025625098
39	0x3b8beac8	0.0042699315
40	0xbd9a6d64	-0.07540396
41	0x3d0ea2a5	0.03482308
42	0xbd9efe52	-0.077633515
43	0xbd61e71e	-0.05515205
44	0x3cdbcc0b	0.026830694
45	0xbe2b8fee	-0.16754124
46	0xbdeaca37	-0.11464351
47	0xbcedd548	-0.029032364
48	0xbdb4f104	-0.088350326
49	0xbdd0c3c0	-0.10193586
50	0xbcd9b7cb	-0.026576897
51	0xbd1240ce	-0.035706334
52	0xbccbf5b2	-0.02489743
53	0xbd68329c	-0.05668889
54	0xbd557051	-0.052109066
55	0xbdfb1db8	-0.12261528
56	0x3d167be7	0.036739256
57	0xbd9f21f3	-0.07770147
58	0xbda75722	-0.08170916
59	0xbd47f2ac	-0.048815414
60	0xbd8b7d0e	-0.06810962
61	0x3c8cebb2	0.017202232
62	0xbe4c1024	-0.19928032
63	0x3c9bdc47	0.019025935
64	0x3c9bc769	0.019015985
65	0xbdd88a73	-0.10573282
66	0x3bf946be	0.00760731
67	0x3bdb5088	0.0066929497
68	0xbdc7a8b4	-0.097489744
69	0xbd61ae40	-0.05509782
70	0xbd96b41d	-0.07358573
71	0xbd6f6fbe	-0.058456175
72	0x3c8cface	0.017209437
73	0xbd89919b	-0.06717225
74	0xbda67a4c	-0.08128795
75	0xbdd38128	-0.10327369
76	0xbda73d54	-0.08165994
77	0x3db24f85	0.087065734
78	0xbd6bfcfd	-0.057614315
79	0xbdca9cda	-0.09893198
80	0x3c326004	0.01088715
81	0x3d89ad14	0.06722465
82	0x3db60e9c	0.08889505
83	0xbe079dde	-0.13243815
84	0x3be1538a	0.0068764137
85	0x3d0465e7	0.032323744
86	0xbd088e88	-0.033339053
87	0xbe107c87	-0.14110003
88	0xbc82a489	-0.015947597
89	0xbd849889	-0.06474406
90	0xbd57719a	-0.052598573
91	0xbd72793b	-0.059197646
92	0xbe1a9839	-0.15097131
93	0xbd96bc62	-0.0736015
94	0x3c84a2c6	0.016190898
95	0xbdd820eb	-0.105531536
96	0x3d1ed43f	0.038776632
97	0xbd18af2a	-0.037276424
98	0xbe32130c	-0.17390078
99	0xbd21b7a5	-0.039481778
100	0xbd9a9c3f	-0.07549333
101	0xbe0f9e17	-0.1402515
102	0xbddd7822	-0.10813929
103	0xbdc84bd1	-0.09780086
104	0xbdef3601	-0.11680222
105	0xbc54615a	-0.012962664
106	0xbe047539	-0.12935342
107	0xbd74abda	-0.059734203
108	0xbe00d0bd	-0.12579627
109	0xbc7a21c4	-0.015266839
110	0xbd7b6721	-0.06137765
111	0xbe1c80fd	-0.1528358
112	0x3d0ab705	0.033865947
113	0xbd924b5f	-0.07143282
114	0xbda53b60	-0.080679655
115	0x3c139a95	0.009009023
116	0xbda90ea6	-0.08254747
117	0x3c85a070	0.016311854
118	0x3de04604	0.109508544
119	0xbced2545	-0.028948436
120	0xbe0a6f0f	-0.13518928
121	0xbc2d37ee	-0.010572417
122	0xbd9279ec	-0.07152161
123	0xbd7e2880	-0.062050343
124	0xbd506303	-0.050875675
125	0xbd6a7935	-0.0572445
126	0x3c194b88	0.009356387
127	0xbdc5401b	-0.09631368
128	0x3d36db08	0.04464248
129	0xbd9d1370	-0.07669723
130	0x3d0f3e14	0.03497131
131	0xbd28a1ec	-0.041170046
132	0xbe126b00	-0.1429863
133	0xbd64fb19	-0.055903528
134	0xbd4d76ae	-0.05016201
135	0xbc511b78	-0.012762897
136	0xbd3486f2	-0.044074006
137	0xbd67801e	-0.056518666
138	0xbda061d0	-0.07831156
139	0x3c8337f2	0.016017888
140	0xbb155247	-0.0022784637
141	0xbdc871de	-0.097873434
142	0x3d48b354	0.048999146
143	0x3cfe7d6f	0.03106567
144	0xbd88faef	-0.06688487
145	0xbd9d2da3	-0.0767472
146	0xbdc0cba9	-0.09413845
147	0x3ce61ff9	0.028091418
148	0x3dbf332e	0.093359336
149	0x3cfc7ffd	0.030822748
150	0xbd700361	-0.058596972
151	0xbdbe4130	-0.09289777
152	0xbd9712b3	-0.073766135
153	0xbdb2b9b0	-0.08726823
154	0x3d38f462	0.045154937
155	0xbdd3f7dc	-0.1035001
156	0xbdaac5e3	-0.08338525
157	0xbd46d3e8	-0.048541933
158	0xbdb2a779	-0.08723349
159	0x3e2a6645	0.16640575
160	0xbdb1032a	-0.086431816
161	0x3d94228e	0.07233153
162	0xbd20f27f	-0.039293762
163	0x3c97c286	0.018525373
164	0xbd8e9d61	-0.069636114
165	0x3c3f3d60	0.011672348
166	0xbd9afdb8	-0.07567924
167	0xbe1f5d16	-0.15562853
168	0xbdb83a9e	-0.08995555
169	0x3d33bec2	0.043883093
170	0xbd4fe1a8	-0.050752312
171	0x3d44685b	0.047951084
172	0xbd81beeb	-0.06335243
173	0xbc0a9f8f	-0.008460893
174	0xbd907a02	-0.07054521
175	0xba83652d	-0.001002466
176	0x3d079270	0.033098638
177	0xbd27684b	-0.040870946
178	0xbe08ea96	-0.13370737
179	0x3e026bf4	0.12736493
180	0x3d34d825	0.044151444
181	0xbcf39d0d	-0.029737974
182	0xbc282250	-0.010262087
183	0xbce2506e	-0.027626242
184	0x3cf2363d	0.029566878
185	0x3b2476bb	0.0025095183
186	0xbd6ac479	-0.057316277
187	0x3cc25133	0.02372036
188	0xbdae6f84	-0.08517364
189	0xbd2d6e72	-0.042341657
190	0xbd7a8ed0	-0.061171353
191	0xbdbcd4b3	-0.09220257
192	0xbd7a7382	-0.061145313
193	0x3c9e1b3c	0.019300096
194	0xbcbf6f5d	-0.023368532
195	0xbda6dd4f	-0.0814768
196	0xbb18aef4	-0.002329764
197	0x3e000102	0.12500384
198	0xbc9aae43	-0.018881923
199	0x3e094657	0.13405739
200	0x3c3f2615	0.011666794
201	0xbd6abe56	-0.057310425
202	0x3d018405	0.031620044
203	0xbd6284ad	-0.05530231
204	0xbd5e57ad	-0.054282833
205	0x3cd58773	0.026065564
206	0xbd6aa9ed	-0.05729096
207	0x3db4df57	0.08831661
208	0xbdb43722	-0.08799578
209	0x3c439f35	0.011939813
210	0xbc9d4e8e	-0.019202497
211	0xbd0d8411	-0.034549776
212	0xbd61821f	-0.055055734
213	0xbd9c14ac	-0.0762113
214	0x3e29c7af	0.1658008
215	0xbe010d42	-0.12602714
216	0xbc9b9c82	-0.018995527
217	0xbd244555	-0.040105183
218	0xbd0f4410	-0.03497702
219	0x3dde0699	0.10841102
220	0xbd15894b	-0.036507886
221	0x3cb5847c	0.0221579
222	0xbd2c2c74	-0.04203458
223	0xbde8a3db	-0.11359378
224	0x3cfd1162	0.030892078
225	0x3d6771b1	0.05650491
226	0xbd887855	-0.066635765
227	0x3a0ebd45	0.00054450735
228	0xbd74f822	-0.05980695
229	0xbd833850	-0.06407225
230	0xbdee0e07	-0.11623769
231	0xbbe32b7f	-0.0069326754
232	0x3ae03d18	0.0017108051
233	0xbd9e11d3	-0.077182434
234	0xbc02eab7	-0.007990531
235	0xbd5652e1	-0.052325133
236	0xbde38eb2	-0.11111201
237	0xbd64eaf6	-0.05588814
238	0xbe104a00	-0.14090729
239	0x3d61d92e	0.05513876
240	0x3d255c80	0.040371418
241	0xbb43d05d	-0.0029878833
242	0x3d19de58	0.03756556
243	0xbd885b06	-0.06657986
244	0xbd071b47	-0.032984998
245	0xbd2c3880	-0.04204607
246	0xbd05af9e	-0.032638185
247	0xbaa346e6	-0.0012457042
248	0xbe042ca7	-0.12907659
249	0x3ea9e0b2	0.3317924
250	0x39f62419	0.0004694767
251	0xbd2479e0	-0.04015529
252	0xbc2b728f	-0.010464325
253	0xbdb771ca	-0.089572504
254	0xbdd50ce3	-0.104028486
255	0xbd6f6765	-0.058448214

lstm.bias_hh_l0 f4 [512]
0	0xba58591e	-0.00082530256
1	0xbdccda1f	-0.10002541
2	0xbe116d01	-0.14201738
3	0xbd2581f0	-0.04040712
4	0xbe20d31e	-0.15705535
5	0xbd253b26	-0.04033961
6	0x3c13a676	0.009011855
7	0xbc77d1a9	-0.0151256705
8	0xbde62dae	-0.112391815
9	0xbd4c9eaa	-0.049956
10	0xbdaa736e	-0.08322798
11	0xbdafdd12	-0.08587088
12	0xbd36d399	-0.04463539
13	0xbdd22986	-0.10261826
14	0x3bb55f13	0.0055350154
15	0x377a49c0	1.4918332e-05
16	0x3b434bd9	0.0029799847
17	0xbe2cc120	-0.16870546
18	0x3d505beb	0.05086891
19	0xbdc4926e	-0.09598242
20	0xbbb0738e	-0.005384869
21	0xbd906dca	-0.070521906
22	0xbdf18e1f	-0.117946856
23	0xbdff37a3	-0.12461784
24	0xbe2ae02f	-0.16687082
25	0xbd8b5736	-0.068037435
26	0xbd77c28d	-0.060488272
27	0xbdbc0649	-0.09180886
28	0x3cc3c27a	0.023896445
29	0xbd094f52	-0.03352291
30	0xbd91350a	-0.070901945
31	0xbe475266	-0.19465026
32	0xbc9b67a6	-0.018970322
33	0xbd8ff689	-0.07029445
34	0x39d02c14	0.00039705692
35	0xbc4cde4e	-0.012504173
36	0xbd83d98d	-0.06437979
37	0xbe54a608	-0.20766461
38	0x3d1346ea	0.0359563
39	0xbddaaa47	-0.10677009
40	0xbdf70d2f	-0.120630614
41	0xbd457328	-0.048205525
42	0xbe2ba923	-0.1676374
43	0x3bfcfce0	0.0077205747
44	0xbdf8b263	-0.121433996
45	0xbd65f810	-0.056144774
46	0xbcb71882	-0.022350553
47	0x3d43bb63	0.047786128
48	0xbd177b39	-0.03698275
49	0x3cb6f3d5	0.022333065
50	0xbd578f92	-0.052627154
51	0xbd2bb96e	-0.041924886
52	0x3cbc4efa	0.022986878
53	0xbcb28383	-0.021791225
54	0x3c085827	0.008321798
55	0xbd94870d	-0.072523214
56	0x3d1fd90d	0.039025355
57	0xbd8ff75d	-0.07029603
58	0xbe041bcb	-0.12901227
59	0xbc4b97e1	-0.0124263475
60	0xbdaad2a9	-0.083409615
61	0x3bf14146	0.0073625175
62	0xbdb8b6f9	-0.09019274
63	0xbcf88ff8	-0.030342087
64	0xbdc2944c	-0.09500942
65	0xbe1e3e7d	-0.15453525
66	0xbcf73881	-0.03017831
67	0xbddb025a	-0.10693808
68	0xbdcfb7b8	-0.101424634
69	0x3a1a0903	0.00058759766
70	0xbbf575a6	-0.0074908314
71	0xbe00571b	-0.12533228
72	0xbdfb366b	-0.12266239
73	0xbd917ed8	-0.07104272
74	0x3c9f2a9d	0.0194295
75	0xbdbf6e7a	-0.093472436
76	0xbdcf1058	-0.10110539
77	0xbd54fa1b	-0.05199633
78	0x3cfef88d	0.031124378
79	0xbd0ef8c0	-0.034905195
80	0xbe09a543	-0.13441949
81	0xbbafd0d7	-0.005365472
82	0xbd1eb4cb	-0.038746636
83	0xbdd843d7	-0.105598144
84	0xbe07a976	-0.13248238
85	0x3cef51d8	0.02921383
86	0xbd109cb6	-0.0353057
87	0xbd5ccbbf	-0.053905245
88	0xbd374944	-0.044747606
89	0xbe240df7	-0.16020952
90	0x3c9a188f	0.018810539
91	0x3d71c26d	0.05902331
92	0xbd663616	-0.056203924
93	0xbd922528	-0.07135993
94	0x3d00a563	0.031407725
95	0x3c9928fd	0.018696303
96	0x3ca8ad81	0.020590546
97	0xbd14bf7f	-0.036315437
98	0xbd513a5c	-0.051081046
99	0xbddbb50a	-0.1072789
100	0xbe08929d	-0.13337179
101	0xbe147ec7	-0.14501487
102	0xbde73788	-0.112898886
103	0xbde62fe5	-0.11239604
104	0xbd4fdb3c	-0.050746188
105	0xbc6741c5	-0.014114802
106	0xbb3af02d	-0.0028524504
107	0xbe0dc0d8	-0.13843095
108	0xbd2208c1	-0.03955913
109	0xbdb7f663	-0.089825414
110	0xbd5dadee	-0.05412095
111	0xbe0bec2e	-0.13664314
112	0xbdb9e01a	-0.09075947
113	0xbb87678e	-0.0041322177
114	0x3cb66596	0.022265237
115	0xbda3a575	-0.07990543
116	0xbd033399	-0.03203163
117	0xbcd2d864	-0.025737949
118	0x3d7894ee	0.060688905
119	0x3b7feb8c	0.003905031
120	0xbcf3f626	-0.029780459
121	0x3ddd1080	0.10794163
122	0x3cb04cf5	0.021521071
123	0xbd8a96ec	-0.06767067
124	0x3bd18fba	0.0063953074
125	0xbdf43d15	-0.11925713
126	0xbca76f2b	-0.020438751
127	0xbc5533e7	-0.013012863
128	0x3c1abf1b	0.009444977
129	0xbdeb6dbe	-0.11495541
130	0xbcf916a7	-0.03040631
131	0xbbbaa1d9	-0.0056955633
132	0xbdf8bd04	-0.12145427
133	0xbdfaa9a3	-0.12239387
134	0x3c9ee7ae	0.019397583
135	0xbd86078b	-0.065444075
136	0xbc8960df	-0.016769825
137	0x3bf41786	0.0074490933
138	0x3b43846b	0.0029833566
139	0xbde2e2db	-0.110784255
140	0xbdf16539	-0.11786885
141	0xbd6624ae	-0.056187324
142	0x3c8cbd82	0.017180208
143	0x3d872765	0.06599311
144	0xbcbeda77	-0.023297532
145	0xbda822ed	-0.082097866
146	0xbdb9e0cf	-0.09076082
147	0xbddc89b4	-0.10768452
148	0xbd81df24	-0.06341389
149	0x3dde9d1d	0.10869811
150	0xbd687c69	-0.05675927
151	0xbd004a9b	-0.03132115
152	0xbc2742c6	-0.010208791
153	0xbcddb829	-0.027065353
154	0xbc9c4536	-0.019075971
155	0xbe147626	-0.14498195
156	0x3d1ef618	0.038808912
157	0xbd81e3fa	-0.06342311
158	0xbe07cf85	-0.13262756
159	0x3dd85ed6	0.105649635
160	0xbccf9390	-0.025338918
161	0x3dbcf419	0.092262454
162	0xbcc79e18	-0.024367377
163	0xbc8570b6	-0.016289096
164	0xbdbe53a4	-0.09293297
165	0xbc16f0c8	-0.00921268
166	0xbe051f55	-0.13000233
167	0xbda22550	-0.07917273
168	0xbdb675fc	-0.089092225
169	0xbbbc8b85	-0.0057539367
170	0xbc4db6da	-0.012555802
171	0x3bd1c39f	0.0064014937
172	0x3d57f2a8	0.05272165
173	0x3d758e34	0.05995007
174	0xbde5839d	-0.11206744
175	0xbc949ec8	-0.018142119
176	0x3cc235e2	0.023707334
177	0xbdf3f468	-0.11911851
178	0xbdfda0b4	-0.12384167
179	0x3d7c9d36	0.061673366
180	0xbdc0ef5a	-0.09420653
181	0xbc83db1a	-0.016095687
182	0xbd13cdf2	-0.036085077
183	0xbdd41419	-0.10355396
184	0x3c6d9614	0.014501113
185	0x3deef0ab	0.116669975
186	0x3cbb512d	0.022865856
187	0x3d518904	0.05115606
188	0x3c5e7c7c	0.013579484
189	0x3d8d04b9	0.068856664
190	0xbd11d6aa	-0.03560511
191	0xbc87728e	-0.016534116
192	0xbc124b43	-0.008929077
193	0xbe04fbdb	-0.129867
194	0xbd22fdd6	-0.039792858
195	0xbd558ace	-0.052134328
196	0xbd40e843	-0.047096502
197	0x3d67bb63	0.05657519
198	0xbdce171f	-0.10063004
199	0x3cebf800	0.028804779
200	0xbd46bb6d	-0.048518587
201	0xbdd560b6	-0.10418837
202	0xbd4fdb9b	-0.05074654
203	0xbdac9fe4	-0.08428934
204	0x3da2c10e	0.079469785
205	0x3db80219	0.08984775
206	0x3d0dbb9a	0.03460274
207	0x3d9747d6	0.073867485
208	0x3d250d1e	0.040295713
209	0xbd0c96c3	-0.034323465
210	0x3e02891a	0.12747613
211	0x3c7ff264	0.015621755
212	0x3cefaca6	0.02925713
213	0x3beb8e58	0.0071885996
214	0x3e191f41	0.14953329
215	0xbd998a2d	-0.07497058
216	0x3d74c1f9	0.0597553
217	0xbc45d293	-0.012074131
218	0xbdf7f32a	-0.12106927
219	0xbd122da5	-0.03568806
220	0x3d0b5279	0.0340142
221	0xbe01c54a	-0.12672916
222	0xbd5bb6dc	-0.053641185
223	0xbc44a1ca	-0.012001464
224	0x3dda7233	0.10666313
225	0x3d5bc341	0.053653006
226	0xbc5cf6c7	-0.013486571
227	0xbdb76f33	-0.089567564
228	0x3cedbfa5	0.029022047
229	0xbd650b7c	-0.055919155
230	0xbe0052ff	-0.1253166
231	0xbd4b9b50	-0.049708664
232	0x3d6deb39	0.058085654
233	0xbda58f0f	-0.08083927
234	0xbdbc0e2b	-0.0918239
235	0xbdb207d5	-0.086929
236	0xbdf687fb	-0.12037655
237	0x3c1b58c5	0.0094816135
238	0xbd4ff9a7	-0.050775196
239	0x3cdf491c	0.027256541
240	0x3c3866c3	0.011254969
241	0x3cfeb734	0.031093217
242	0xbd21cc72	-0.039501615
243	0x3c08963b	0.008336599
244	0x3c1ecf6c	0.009693008
245	0x3d2e7ca0	0.04259932
246	0xbbcc7663	-0.0062396987
247	0xbdaf61eb	-0.08563598
248	0xbdafd677	-0.08585828
249	0x3eb50cf8	0.35361457
250	0xbb0ad0fb	-0.002118169
251	0xbcffee99	-0.031241702
252	0xbdf98b83	-0.12184813
253	0xbe07cfba	-0.13262835
254	0xbe0759f7	-0.13217913
255	0xbd8fb157	-0.07016247

fc.weight f4 [2, 128]
0	0xbcee8c22	-0.029119555
1	0xbd59d63a	-0.053182818
2	0x3d94de92	0.072690144
3	0xbcc3a607	-0.023882879
4	0x3c4f4b59	0.012652242
5	0xbbbfdfb7	-0.0058555263
6	0xbcfd01b6	-0.030884605
7	0xbc7ed1cd	-0.01555295
8	0x3d5ff4bf	0.054676767
9	0x3d0772ad	0.033068348
10	0x3ac16ac8	0.0014756555
11	0xbbc70010	-0.0060730055
12	0xbd2e38c1	-0.042534593
13	0xbc833574	-0.0160167
14	0x3d11e475	0.035618264
15	0xbdae6f03	-0.085172676
16	0x3d64a97a	0.055825688
17	0x3db49cb7	0.088189535
18	0xbd136f1d	-0.035994638
19	0xbd6eb7a0	-0.058280587
20	0x3d1f73ed	0.038928915
21	0x3c76eab0	0.015070602
22	0x3bb9fadc	0.0056756567
23	0x3ad9df30	0.0016622301
24	0x3d363ae4	0.044489756
25	0x3d83ec26	0.06441526
26	0xbd729c15	-0.059230883
27	0x3d5c05ed	0.05371659
28	0x3d258a35	0.040415008
29	0x3dd4b508	0.103860915
30	0x3b113c0e	0.002216104
31	0x3a6d2d85	0.00090476155
32	0x3c977b2f	0.018491356
33	0x3d5e039e	0.05420267
34	0x3e07dd13	0.13267927
35	0xbd977d5c	-0.07396957
36	0x3bd2708e	0.006422109
37	0xbd18d453	-0.037311863
38	0xbc658f22	-0.014011176
39	0x3ba138c6	0.004920098
40	0xbce880cc	-0.028381728
41	0xbd00e71b	-0.0314704
42	0x3ce414ab	0.027841887
43	0xbbafa8e6	-0.0053607104
44	0x3ce8e0fa	0.02842759
45	0xbba6eb95	-0.0050940015
46	0xbd437d1d	-0.04772674
47	0xbcd92a7c	-0.026509516
48	0x3cb77ca6	0.022398304
49	0xbcba5db6	-0.022749763
50	0x3d1aa053	0.037750553
51	0xbd386502	-0.045018204
52	0x3d451997	0.048120108
53	0xbceffb8f	-0.029294757
54	0x3de434f8	0.111429155
55	0xbd0a530b	-0.033770602
56	0xbbad456c	-0.0052878167
57	0xbd31cb81	-0.043406967
58	0x3d3125ed	0.04324906
59	0xbc8f1eb4	-0.017470695
60	0xbd363144	-0.044480577
61	0x3d90bbee	0.07067095
62	0xbd283dd0	-0.041074574
63	0xbd110124	-0.03540148
64	0xbd8f3ad5	-0.06993643
65	0x3db76a4c	0.089558214
66	0xbd4b3fda	-0.04962144
67	0x3bc6a979	0.006062683
68	0x3aa73c7a	0.0012759112
69	0x3d82ef82	0.06393339
70	0x3d466749	0.048438344
71	0xbd054c89	-0.032543693
72	0xbd741f54	-0.05960019
73	0x3c9de51d	0.019274289
74	0xbd72ff35	-0.059325416
75	0xbd08fd64	-0.033444777
76	0x3d0cd115	0.034379084
77	0xbcf7be0c	-0.030241989
78	0xbca405e9	-0.02002235
79	0x3ca6eeb4	0.020377494
80	0xbce303fe	-0.027711865
81	0xbd7b716a	-0.061387457
82	0xbaba4a11	-0.0014212747
83	0x3bc3ea2f	0.0059788446
84	0x3c3a536a	0.0113724265
85	0x3d3743b4	0.0447423
86	0xbccb0ea6	-0.024787258
87	0xbc035da9	-0.008017936
88	0x3db2f769	0.08738596
89	0x3c9254da	0.017862726
90	0x3b86b068	0.0041103847
91	0xbdb92bb6	-0.0904154
92	0x3c281e62	0.01026115
93	0x3d887425	0.06662778
94	0x3ccee672	0.02525637
95	0x3d00e714	0.031470373
96	0xbbfe65f0	-0.0077636167
97	0x3cfcf4d6	0.030878466
98	0xbd2e2340	-0.042514086
99	0x3d8b8a64	0.06813505
100	0x3d10b69c	0.0353304
101	0x3ccbd0c2	0.024879817
102	0x3c6ea236	0.014565041
103	0xbbcf02a4	-0.0063174535
104	0xbd343271	-0.043993417
105	0xbcbd5dc5	-0.023116002
106	0x3d4b56dc	0.049643382
107	0xbd1cb7ae	-0.038261108
108	0x3cf7d14a	0.030251164
109	0xbd8bf80a	-0.06834419
110	0xbd881f30	-0.066465735
111	0x3d14c576	0.036321126
112	0x3d2d0b8b	0.042247336
113	0xbc8ca991	-0.0171707
114	0x3d45f5c9	0.048330102
115	0x3d058d2e	0.032605343
116	0x3d0b5fa4	0.034026757
117	0xbd8c43b3	-0.0684885
118	0x3d4fdf2d	0.050749946
119	0x3d5c3fbd	0.053771723
120	0x3d64731d	0.055773843
121	0xbda60dc6	-0.08108096
122	0x3b9fb3a9	0.004873712
123	0xbb860d0f	-0.004090912
124	0x3cf89647	0.030345095
125	0xbd34e696	-0.044165216
126	0xbcf477ae	-0.029842224
127	0x3d54020b	0.05175976
128	0xbbb810d9	-0.005617243
129	0x3d9d6eb3	0.0768713
130	0x3d826205	0.06366352
131	0xbd8a97d2	-0.06767239
132	0xbd683b4c	-0.056697175
133	0xbd0dd2c6	-0.034624837
134	0xbd7af183	-0.06126548
135	0xbd3d9818	-0.046287626
136	0x3dadfc0c	0.0849534
137	0x3d4ecbaa	0.050487198
138	0xbd152443	-0.036411535
139	0x3ca5c186	0.02023388
140	0xbca49f0a	-0.020095367
141	0xbd358cc3	-0.044323694
142	0x3c83fbf6	0.016111355
143	0x3d3cf63d	0.04613327
144	0x3d8b981f	0.06816124
145	0xbcb28e4c	-0.021796368
146	0xbd6e1b9e	-0.058131807
147	0xbd6ada8b	-0.057337325
148	0x3cc0212b	0.023453316
149	0xbbcd6108	-0.0062676705
150	0xbd1ab2e0	-0.037768245
151	0xbcd398c8	-0.025829688
152	0xbc39f62c	-0.011350196
153	0x3ce3b579	0.027796494
154	0xbc67975f	-0.014135211
155	0x3d8ae86d	0.06782613
156	0x3d3c86db	0.046027046
157	0x3d7e40d0	0.06207353
158	0xbcaf30ef	-0.021385638
159	0x3cb86f06	0.022513878
160	0x3ce303dd	0.027711803
161	0x3a36e2f7	0.00069765694
162	0xbc6dcddd	-0.014514414
163	0xbd47513a	-0.048661448
164	0xbd6d83c9	-0.05798701
165	0xbca8b591	-0.02059439
166	0x3d04e1ad	0.032441784
167	0x3cffbab4	0.031216957
168	0x3cc1bfd8	0.023651049
169	0x3d31b8f9	0.043389294
170	0x3ce5d3d1	0.028055103
171	0xbd4ce204	-0.050020233
172	0x3ccb950c	0.024851345
173	0x3d01e0dc	0.031708583
174	0xbb489486	-0.0030606105
175	0xbbc9fc39	-0.0061641005
176	0x3d3bd5fc	0.04585837
177	0x3ce82e10	0.028342277
178	0xbb2cf812	-0.0026392979
179	0xbdb5386d	-0.08848653
180	0xbd638c5c	-0.05555378
181	0xbd16c394	-0.03680761
182	0x3bf6db18	0.007533442
183	0xbdb0acd2	-0.08626713
184	0x3dabb4a1	0.083840616
185	0x3d2776c3	0.040884744
186	0x3c3954e7	0.011311746
187	0x3dc945b4	0.09827748
188	0xbd841086	-0.06448464
189	0x3d155151	0.036454502
190	0xbc30f21f	-0.010799914
191	0xbdaa16be	-0.08305119
192	0xbc44c188	-0.012009032
193	0xbb919bef	-0.0044436376
194	0x3d9195d0	0.071086526
195	0xbd1677ab	-0.036735218
196	0xbd25bd54	-0.04046376
197	0xbd60cab7	-0.054880824
198	0x3d7bdbf0	0.061489046
199	0x3c6f2dea	0.014598349
200	0x3b89a755	0.0042008557
201	0x3bf85ff9	0.0075798
202	0xbbb534ab	-0.00552996
203	0xbbe36ba5	-0.0069403225
204	0xbbd82367	-0.006596017
205	0xbd3873b6	-0.045032226
206	0x3d74f29f	0.059801694
207	0x3bae4f90	0.005319543
208	0x3c44bae6	0.012007451
209	0x3da8ca5f	0.08241724
210	0x3d9a3312	0.07529272
211	0x3d150695	0.03638323
212	0x3ca8d091	0.020607265
213	0xbd840e4d	-0.0644804
214	0xbd77d746	-0.060508035
215	0xbd34864f	-0.0440734
216	0xbda793c4	-0.08182481
217	0x3d8b4b76	0.068015024
218	0xbcff38dd	-0.031155044
219	0x3d5d40e6	0.05401697
220	0x3b452504	0.0030081877
221	0xbd509686	-0.0509248
222	0x3d03701b	0.032089334
223	0x3dc280dd	0.09497235
224	0xbd3dfbab	-0.046382587
225	0xbce1be32	-0.027556513
226	0xbc36f9bd	-0.011167941
227	0xbcd4f3b7	-0.025995119
228	0x3cb3efc1	0.02196491
229	0x3ca08591	0.01959494
230	0xbcb55a29	-0.022137718
231	0xbce020b9	-0.027359353
232	0xbc4c837e	-0.012482522
233	0xbda0bf82	-0.07849027
234	0xbcd5122d	-0.026009643
235	0xbdb902e7	-0.09033757
236	0x3d748beb	0.05970375
237	0xbc81fca3	-0.015867537
238	0xb9d8f080	-0.00041377917
239	0xbb9b7f72	-0.0047454173
240	0xbd683a9e	-0.056696527
241	0xbd44b1f3	-0.048021268
242	0x3d6f4fa3	0.058425557
243	0xbd1ea365	-0.038730044
244	0xbd35d161	-0.044389132
245	0x3d360bb5	0.04444476
246	0x3cb593e2	0.022165243
247	0xbd9e6ee5	-0.07735995
248	0x3d30a54d	0.043126393
249	0xbc91e7e2	-0.017810766
250	0x3ce1aa3f	0.027547
251	0xbcf0b1ee	-0.029381718
252	0x3cd365d4	0.025805391
253	0xbdb08541	-0.08619166
254	0xbce68eaf	-0.028144209
255	0xbd007258	-0.031359047

fc.bias f4 [2]
0	0xbd70127f	-0.05861139
1	0xbce998e0	-0.02851528
