rnn_model.pth (torch, 223836 bytes, 6 tensors)

rnn.weight_ih_l0 f4 [128, 300]
000000 cb 16 19 be 02 0c f6 3c 09 30 fd bd cf a5 ee bd
       -0.14950101 0.030035023 -0.123626776 -0.11652719
000010 bd 83 a8 3d 05 9e 20 bc f0 ef 0f be 21 10 cf 3d
       0.08228252 -0.0098033 -0.14056373 0.10110498
000020 57 2b e3 bd 44 a9 40 3e bb 6a 5c bd f7 6b a5 3c
       -0.11092251 0.1881457 -0.053812724 0.020193083
000030 d9 26 21 bd 66 4f 91 3c ef 96 12 bc c6 ae bb 3a
       -0.03934369 0.017738055 -0.008947118 0.0014319054
000040 d1 5e 92 bd d9 d9 84 3d 12 bd 2c bc a6 6a 51 3d
       -0.07146991 0.06486864 -0.010543125 0.0511271
000050 22 0e c0 3d 90 b6 7e 3a 35 a6 e4 bc 65 46 f4 3a
       0.093776956 0.0009716535 -0.027911285 0.0018636702
000060 20 7b ec 3d 02 e4 9c 3d e4 14 c8 bc ab de 78 bd
       0.11546922 0.076606765 -0.024424024 -0.060759228
000070 5f 74 ac bb c4 f1 57 3d 1b 6b 75 3b be d4 d8 3c
       -0.005262896 0.0527208 0.0037447873 0.02646863
000080 e4 91 9e bc ce 1a c1 3d 7a 34 84 3d ed aa ec 3d
       -0.019356675 0.09428941 0.064553216 0.11556039
000090 12 2a f4 bd 4e 4d 93 3d 85 99 8e 3d cc 1a 40 bd
       -0.11922087 0.07192479 0.06962875 -0.046900555
0000a0 db 28 70 3d 8e 42 b3 bd 8c b9 f5 3c bc a3 42 3e
       0.058632713 -0.08752929 0.029995702 0.19007772
0000b0 da 6a 1c 3e b4 6b 3a 3e f9 c8 dc 3c cb 6d b3 3c
       0.15275136 0.18205148 0.0269513 0.02190294
0000c0 a7 29 d8 3d da da 09 bd 5e ba c6 3d 2f 19 8c 3d
       0.105548196 -0.03365598 0.097035155 0.06840741
0000d0 94 99 d4 3d 3a ad 93 3d db 90 06 bc 41 12 c1 3d
       0.10380855 0.07210775 -0.008213247 0.0942731
0000e0 0d fd b8 3d ef 47 1e bb af 04 f4 3c df e5 be bd
       0.090326406 -0.0024151762 0.02978739 -0.09321188
0000f0 a4 fc f1 3d 54 d1 32 bd 76 a4 bc 3d de 8b 8f 3d
       0.118157655 -0.043656662 0.09211056 0.070090994
000100 36 ea 3b 3c 8e 94 86 3d a8 f1 95 3c c8 ab ab 3d
       0.011469414 0.06571303 0.018303707 0.08382374
000110 59 b9 f3 3c 04 3d 4e bb 41 be 96 3d 7b 68 5e 3d
       0.029751467 -0.0031469474 0.07360507 0.05429886
000120 45 b4 7f bd 5b f7 cf 3d 78 ae 33 bc 00 98 7f 3d
       -0.062427778 0.10154601 -0.01096689 0.062400818
000130 a9 f4 5f bd 95 6d e3 bc 1f 69 52 bb 63 8a f9 3c
       -0.054676685 -0.027762214 -0.0032106114 0.030461496
000140 1c 87 6b 3d 41 22 c7 bd 6c 71 c5 bc 9d f1 19 be
       0.057501897 -0.0972333 -0.024101935 -0.15033574
000150 90 44 8b 3c f8 f4 a4 3d d7 32 98 bd 14 cb c7 bb
       0.017000467 0.080545366 -0.07431572 -0.006097207
000160 9b 65 b3 bc b3 82 bb 3c 18 74 4d 3d 94 0f 2a 3d
       -0.021899035 0.02288947 0.050159544 0.041518763
000170 6e 3a 43 bd 5d 01 fc 3c 2c 63 bc 3d 1f bd 9b 3b
       -0.047663145 0.030762369 0.09198603 0.0047527696
000180 29 64 a7 3c 7d c2 fa bc be 64 24 bc 57 74 80 bd
       0.020433502 -0.030610317 -0.010033784 -0.0627219
000190 19 bb df bc a2 39 09 bd 3f 48 b8 bd 3c 88 08 3e
       -0.027310895 -0.03350223 -0.08998155 0.1333322
0001a0 2e 6b c3 bd d9 c8 dc bd be d5 51 3d 85 1c fd bc
       -0.09541927 -0.10780496 0.05122923 -0.030897388
0001b0 a9 85 01 3d 59 c5 0c be b9 e5 a0 3d d9 36 b5 bd
       0.03162161 -0.13747157 0.07856316 -0.08848352
0001c0 c4 47 b1 bd 21 08 1d be 68 e1 a4 bc 01 67 e4 3b
       -0.08656266 -0.15335132 -0.020127013 0.006970287
0001d0 83 b3 a8 bd 99 16 cb bc 00 9e a0 bd 82 72 c7 ba
       -0.08237364 -0.024791049 -0.07842636 -0.0015216621
0001e0 a4 fb 60 bd 41 01 8f bd 30 ba 84 3c 3c cc a7 bd
       -0.054927483 -0.06982661 0.016202062 -0.081932515
0001f0 e8 67 9f 3c 28 f9 1b 3d 05 56 9c 3a d6 ee a2 3d
       0.019458726 0.03807941 0.0011927491 0.079557106
000200 77 4f 0f 3d 46 ec 09 3d c4 bb 0b 3d 62 2b 05 bd
       0.034987893 0.033672594 0.034114614 -0.032512076
000210 1a e8 17 be bb 46 bd 3d d5 17 0f be 6c 83 59 bc
       -0.14834633 0.092420064 -0.13973935 -0.013275962
000220 3e 95 9d bd 8a ec 68 bd a3 71 e8 3c fe 92 47 bc
       -0.07694481 -0.056866206 0.028374499 -0.012181042
000230 38 45 2b 3e 9b df 95 bc 3a 36 dd bc 7c 28 37 3c
       0.16725624 -0.0182951 -0.027003396 0.011179086
000240 f0 c2 49 bc c6 67 fd 3d f1 39 f6 bb ff 1d 0c bc
       -0.012314543 0.12373309 -0.0075142314 -0.0085520735
000250 00 54 6c bc 1f 81 aa 3b 9f b6 af 3d 5f cf c2 bd
       -0.014424324 0.0052033807 0.08579754 -0.09512209
000260 2f 65 67 bd d0 4a b9 bc a4 93 9a bb b5 9a c7 3b
       -0.05649298 -0.022618681 -0.004717307 0.0060914406
000270 c0 62 b2 bd e7 71 a4 3c 99 ff 09 3e 4c bf 9b bc
       -0.08710241 0.020073844 0.13476409 -0.019012116
000280 4e 60 02 be fc 43 01 be 0f 92 c0 3c 99 77 37 3c
       -0.1273205 -0.1262359 0.023507146 0.011197948
000290 67 d9 eb bc 88 7e cd bd 47 df 37 3d 88 ca af 3d
       -0.028790189 -0.100338995 0.04489067 0.08583552
0002a0 c0 25 1f be 07 70 96 3d 2c 5e 84 bd 52 a9 1b bd
       -0.15541744 0.07345586 -0.06463274 -0.038003273
0002b0 fe 0c ee 3d 0c f1 07 3d fb 72 e3 3d 11 ec ad 3c
       0.11623572 0.033188865 0.11105915 0.02123073
0002c0 d9 10 b8 3d 4f a5 94 bd 5b 19 ef 3d 2f 6b 77 3d
       0.089875884 -0.072580926 0.11674758 0.060404953
0002d0 44 a8 c6 bc 68 d7 61 bd a3 69 65 bd d0 0b 4d 3d
       -0.024250157 -0.055137068 -0.056008946 0.050060093
0002e0 6a b3 8e bc ca a4 ac 3d fc a6 4f 3c 07 03 5f bd
       -0.017419536 0.084298685 0.0126740895 -0.054446246
0002f0 22 33 04 3d 53 c2 bd bd 24 ca 7a bd 5d 1a c2 bb
       0.032275327 -0.0926558 -0.061227933 -0.005923553
000300 0e 46 94 bd d3 a2 a3 3d 74 28 fd 3a 16 00 9a bb
       -0.07239924 0.07990041 0.0019314424 -0.0046997173
000310 a3 34 c5 3d fd ff c4 3a 77 c1 c2 3c a6 35 0b 3e
       0.0962918 0.0015029904 0.023773892 0.13594684
000320 b0 61 19 bd 8a 06 82 bd 16 66 75 3c a1 c9 0f bd
       -0.037446678 -0.063489035 0.014977952 -0.035104398
000330 45 b2 7c 3b 83 a7 6d bd 4a f7 6f bd cc 17 93 bc
       0.0038558405 -0.05802108 -0.058585443 -0.017955683
000340 21 f6 7c bd 3e fe 9d bd 96 0c 3e 3d 58 9b 00 bc
       -0.061758164 -0.077145085 0.04639872 -0.007849537
000350 e9 7c fa 3c 84 ff 16 bd 77 23 57 bd 81 d4 f8 3d
       0.03057714 -0.036864772 -0.052524056 0.12149907
000360 2b 35 0d bd 71 23 9c 3c 2d 78 0d bd c0 29 02 bc
       -0.034474533 0.019059869 -0.034538437 -0.007944524
000370 93 a1 46 bc 71 9e 86 bc 3a 4d 16 bd 03 04 8a 3d
       -0.012123483 -0.016432973 -0.036694743 0.067390464
000380 ac 91 05 3d 07 4f 80 bd a2 22 4a bc d1 9c e8 bb
       0.032609627 -0.06265073 -0.012337359 -0.007098772
000390 2c 22 f3 3c a6 fa 9e 3c 8b 05 32 3c 1d 41 92 bd
       0.02967938 0.019406628 0.010865579 -0.071413256
0003a0 65 3d ac bd 8c 8f 4d 3d c5 fa bf 3c 78 35 11 bd
       -0.084101476 0.050185725 0.023435006 -0.035451382
0003b0 89 3b 05 be 41 50 1a 3d 74 a1 8d 3d 2c ca 3a bd
       -0.13010992 0.037674192 0.0691556 -0.045602962
0003c0 f7 b9 61 3d 11 07 b0 3d 07 15 c7 3d 2e 33 58 3d
       0.05510899 0.08595098 0.097208075 0.052783184
0003d0 51 f1 7d 3d f5 16 14 3e f7 fc 2d bd c9 01 21 3d
       0.061997715 0.14461882 -0.042477574 0.039308343
0003e0 52 cb 9b 3c 09 56 e6 bc 26 29 1d bd 24 ce a5 bd
       0.01901785 -0.028117197 -0.03836932 -0.08095959
0003f0 63 51 d8 bd 75 d2 97 3c 36 86 4a bc 60 4e 9f bc
       -0.10562398 0.01853297 -0.0123611 -0.019446552

rnn.weight_hh_l0 f4 [128, 128]
000000 c6 72 f0 bc ec 78 9d bd 6e 0f a1 3d 84 7a 68 3d
       -0.029351603 -0.0768908 0.07864271 0.056757465
000010 50 d6 61 bd f0 d6 60 bd a8 32 1b bd 1f c2 af bd
       -0.055136025 -0.05489248 -0.037890106 -0.085819475
000020 6b 6d 7a bd d3 d4 29 bc 46 4d 23 bc c8 6d 1f 3d
       -0.061139505 -0.010365683 -0.009967154 0.038923055
000030 bf a1 49 bd 8e ba 5d bd da 39 1b 3d ff 6e 0b bd
       -0.04922652 -0.05413299 0.03789697 -0.0340414
000040 8f fc 22 bd d2 f9 10 3d d5 44 24 bd 1f c5 c6 3b
       -0.03979164 0.035394497 -0.040104706 0.006065979
000050 5d 3b a1 bd b4 2f 2b bc fb b5 32 3d 83 2a 6d 3c
       -0.07872651 -0.010448385 0.04363058 0.014475468
000060 51 7f 94 3c 47 91 de 3b 3f c3 50 3d e6 f6 9d 3c
       0.018127115 0.0067922208 0.05096745 0.01928277
000070 6c eb f7 bc c9 80 0c 3d 48 3c 16 3d dc ad 0c 3c
       -0.030263625 0.034302507 0.036678582 0.008586373
000080 be e3 09 3d ca e1 09 3d 53 74 0c bd 18 4e 37 bc
       0.033664457 0.033662595 -0.034290623 -0.011188053
000090 f7 95 58 bd ee 84 78 3c 3a 3c e5 bc 39 7d ca 3c
       -0.052877393 0.015168412 -0.02798282 0.024717914
0000a0 11 a4 22 bd c9 25 c8 bd a0 57 fe bb 3a 03 56 bd
       -0.039707247 -0.09772832 -0.0077619106 -0.05224917
0000b0 73 25 79 bd 77 23 85 bd 5a 00 97 3b e2 84 96 bd
       -0.06082673 -0.06500905 0.004608196 -0.07349564
0000c0 ab 52 fe 3c 2f 10 03 bd a1 77 86 bd f5 c2 c8 bd
       0.031045279 -0.031997856 -0.06565786 -0.0980281
0000d0 a6 db fb 3c 71 89 2e bd 0c 1c e1 3c 99 26 a1 3c
       0.030744385 -0.042611543 0.027479194 0.019671725
0000e0 16 d6 65 3d 21 5c dd bc 1c fb c2 bd db 7c 7b 3d
       0.05611237 -0.02702147 -0.095205516 0.06139837
0000f0 ba fd d0 bc 36 2c b2 3d 42 40 7e bd 7c 8e 7a bd
       -0.025511611 0.08699839 -0.062073 -0.06117104
000100 aa 9f 81 3c a2 8c 1e bd f8 02 9e 3c 0c 14 ca 3d
       0.015823204 -0.038708337 0.019288525 0.09867105
000110 d4 8c 91 bd 72 e1 17 3d d0 46 4e bd f2 89 be bc
       -0.07106939 0.037080236 -0.0503605 -0.023259137
000120 df f7 99 3d 01 ca 78 bd ba 8a ab bd 96 8f 99 3c
       0.07517981 -0.06073952 -0.08376069 0.018745225
000130 2e d1 6e bd 85 75 80 3d af 2d 02 3d c3 b5 79 bd
       -0.058304958 0.06272415 0.03178185 -0.060964357
000140 05 62 a1 3d 62 74 12 bd 14 6a a3 3d 9b da 53 3d
       0.07880024 -0.035755523 0.07979217 0.05172215
000150 c5 6c 58 3d ee 0b ba bc 0e e0 4d 3d ff 54 e4 3d
       0.052838106 -0.022710767 0.050262503 0.11149024
000160 5a b8 93 bd 9e ac 11 3d 67 27 9e bc 3d 79 6b 3d
       -0.07212897 0.03556501 -0.019305898 0.05748867
000170 64 00 8b bd 2d e3 14 bd d7 00 8b bd ec 2d 8b 3b
       -0.06787184 -0.036349464 -0.067872696 0.0042474177
000180 9b d5 be 3c d2 97 78 3c e2 4a 5e bd e0 71 c6 bd
       0.023295214 0.0151729155 -0.054270633 -0.09689689
000190 f3 61 2b 3a 30 f3 55 bd b9 fd 58 3c 7c 8e c1 bc
       0.0006537728 -0.052233875 0.013244086 -0.023627512
0001a0 16 d9 f0 b9 32 fb 65 3d 64 f5 6a bc ed b0 86 bd
       -0.0004593811 0.05614776 -0.014340732 -0.06576715
0001b0 99 bd 40 3d 16 13 f8 3c c0 27 64 3d 97 52 3c 3c
       0.047055814 0.030282538 0.05570197 0.0114943
0001c0 a5 15 ac bd 36 5c 8a bd e8 07 b7 bc d4 11 c2 3c
       -0.08402566 -0.06755869 -0.022342637 0.023690142
0001d0 66 1b 71 bd 55 a8 9e bc a9 02 95 3d d6 a3 67 bd
       -0.05886402 -0.019367376 0.07275898 -0.05655273
0001e0 e4 9d da bd 16 28 86 3d 2e e3 35 bc 21 1e 39 bb
       -0.106746465 0.065506145 -0.011101527 -0.0028246718
0001f0 29 8c 56 3d bd 10 4e bd 5d 6a 94 3d 5c c9 cf 3c
       0.05237976 -0.05030893 0.0724685 0.02536457
000200 58 dd bd 3d 71 95 c9 bd 5c 5f a8 3d bf db f7 bb
       0.092707336 -0.09842957 0.08221313 -0.0075640376
000210 a3 aa 20 3d 7b f3 09 bc dc c4 8f 3d 35 3c c2 3d
       0.03922523 -0.008419867 0.0701997 0.0948414
000220 cf 9c 9a 3d 9e d3 b0 3d c7 d7 04 3c a6 ca ee 3a
       0.0754944 0.08634113 0.008108086 0.0018218353
000230 36 0f 52 3d f0 bf c3 3d ae 0b 8f 3d 11 7c f9 bc
       0.051284038 0.095580935 0.069846496 -0.030454667
000240 95 f2 2b 3d 99 b7 2b bd 8f 23 fe 3c d4 98 76 3d
       0.04197939 -0.04192314 0.031022815 0.060204342
000250 2f 76 41 3d 37 f9 d1 bb 89 27 33 3d e8 26 61 bd
       0.04723185 -0.0064078826 0.043738876 -0.054968745
000260 89 41 7d bd 0a b8 79 bc 60 b6 50 bd 6e 97 91 3d
       -0.061830077 -0.015241632 -0.050955176 0.07108961
000270 ba d2 82 bd 05 74 7e 3d 64 21 00 bd ad 08 03 bc
       -0.06387849 0.062122364 -0.031281844 -0.007997674
000280 67 74 8a bb 8f ce 9b bd d1 92 bf 3b 7d 3e 5a 3d
       -0.004225302 -0.07607757 0.0058463593 0.05328225
000290 4d ab f4 3c 9d 8f 9a bd 57 1d 47 bd f2 12 7f 3d
       0.029866839 -0.07546923 -0.048611965 0.062273927
0002a0 04 00 75 bc 38 1b 8d bd 78 f7 92 3c b3 f7 21 bc
       -0.014953617 -0.06889957 0.017940268 -0.009885716
0002b0 2f eb 00 3d d2 42 96 bd 53 ba 50 bc d4 26 8c bd
       0.03147429 -0.07336964 -0.012739736 -0.068433434
0002c0 a0 d9 26 3d 99 61 84 bc dd 33 16 bc da 76 3f bd
       0.040734887 -0.01615982 -0.009167639 -0.046744205
0002d0 09 6d 80 bc 4d 06 9f bd 6f 00 13 3d 97 0e b4 bc
       -0.015676992 -0.07764874 0.035889085 -0.021979613
0002e0 c7 5c 5c bd c7 05 91 3d a5 ad 75 3d 6b 38 a0 bd
       -0.053799417 0.0708118 0.059980053 -0.07823261
0002f0 fa 36 a8 bd 33 e7 4b 3d 26 18 66 3d 2f 8f 5c bd
       -0.08213611 0.049781036 0.056175373 -0.053847488
000300 f1 a5 9a 3d 0c 1e 92 bc d7 dc a2 3c 50 34 ad bc
       0.07551182 -0.017836593 0.019880695 -0.021143109
000310 c9 00 9d 3c d6 8b 19 bd 52 1a 83 3d 73 7d 83 bc
       0.019165413 -0.037486874 0.064015046 -0.01605103
000320 6a aa 28 3d 9e f7 c6 3d 60 30 86 bd 06 34 6f bd
       0.041178145 0.09715198 -0.065521955 -0.058399223
000330 41 3c 5d 3d 44 53 8b bd 37 91 89 3d 39 92 4b bd
       0.05401254 -0.06802991 0.06717151 -0.049699996
000340 93 5d c1 3d bd 64 fd bc fc 98 68 3c 0c 89 c7 bc
       0.09441676 -0.030931825 0.014196631 -0.024357341
000350 8f fe 6a 3d 5f 12 9a bd 46 49 b1 bd be b9 2c bd
       0.057371672 -0.07523035 -0.08656554 -0.042169325
000360 07 43 bb 3b 29 ef 4a bd ec 4b ad 3d f0 65 ed bc
       0.0057147774 -0.049544487 0.084617466 -0.028979272
000370 6b 96 21 3d 94 c2 9d 3d 3d 11 81 bd c8 21 89 3b
       0.03945009 0.077031285 -0.06302116 0.0041849352
000380 08 f9 d9 bb 15 1a 0e 3d 34 02 5b 3d 20 77 b2 3c
       -0.0066520013 0.034692843 0.053468898 0.021785319
000390 00 ac 89 bc a9 74 76 3d b9 be 67 3d 38 60 b4 bc
       -0.016805649 0.06016985 0.05657837 -0.022018537
0003a0 5d 56 e1 3b 87 c8 19 bd e1 b1 87 bd eb dd ed bc
       0.0068767504 -0.037544753 -0.066257246 -0.029036483
0003b0 4b 5f 00 bd e8 18 cc 3c 1f 4f a3 bc ab a4 22 3c
       -0.03134088 0.02491422 -0.019935189 0.009926955
0003c0 aa 6a 46 bc 96 56 d4 bc 72 83 8d 3d 0e df 8f 3d
       -0.012110392 -0.025920194 0.06909837 0.07024966
0003d0 dc b9 86 3d a5 52 c3 bd a7 c5 9c 3d 3a a3 ab bc
       0.065784186 -0.095372476 0.07654887 -0.020951856
0003e0 c8 81 c5 bc 9a 97 d0 bc cf cd 94 b9 49 d5 4e bc
       -0.024109736 -0.025462914 -0.000283821 -0.012624093
0003f0 45 b4 db bd 75 9f 3a 3b aa 47 56 bd b5 04 60 bd
       -0.10727743 0.0028476391 -0.052314438 -0.05469199

rnn.bias_ih_l0 f4 [128]
000000 e4 14 64 bd d5 8f a5 3c 2b 86 54 3d d8 e9 e2 bc
       -0.055683985 0.020210186 0.051885765 -0.027699396
000010 e7 ae cc bb 09 86 2b 3d 42 d2 d1 3b ef 7f 89 bc
       -0.006246436 0.041875873 0.0064032385 -0.016784636
000020 bf 43 9e bc 65 01 88 bd 1c 4b b6 bb b6 23 20 bc
       -0.019319413 -0.06640891 -0.005563153 -0.009774139
000030 bd 18 90 3d d0 e5 43 bc 26 ff e0 bc bc fd 12 3a
       0.070359685 -0.011956647 -0.027465414 0.00056072674
000040 cb 40 28 3d 31 75 8c 3d 6d 8e 6e 3d b8 98 bd 3c
       0.041077416 0.0685829 0.058241297 0.023144111
000050 ba 47 73 3d 0a 68 67 bd 30 65 15 bd f7 61 57 3d
       0.059394576 -0.056495704 -0.036473453 0.05258366
000060 8e fc 06 bd 03 09 91 3c 30 dd 58 bc 8d 63 41 3d
       -0.0329557 0.017704492 -0.013236329 0.04721408
000070 47 e6 9f 3d 16 b9 8d 3d 0b 45 2b bd 1f 05 83 bc
       0.07807594 0.06920068 -0.04181389 -0.015993653
000080 06 9f de 3c 56 f8 c3 bc d7 6f c1 bc e8 0e b8 bc
       0.027175438 -0.023922127 -0.0236129 -0.022468045
000090 8e 32 32 3d f1 ec 72 bc d8 b6 d7 bd 28 16 b3 3c
       0.043505244 -0.014826999 -0.105329216 0.02186115
0000a0 04 ca 9c bd 05 1d 96 bc b2 d7 62 3d f4 07 92 bd
       -0.07655719 -0.018324384 0.055381484 -0.07130423
0000b0 9d 93 0e bd dc 18 11 3d 2d 0f 56 3a db f6 54 3b
       -0.034808744 0.0354241 0.00081657135 0.003249577
0000c0 0b d6 20 bd f8 20 1c bc b4 aa 8a bd 65 9b 43 bc
       -0.039266627 -0.009529345 -0.0677084 -0.011938904
0000d0 3c bc 83 bd 96 a4 86 3d c2 cf 01 3d ff 0e 8d bd
       -0.06432387 0.06574361 0.031692274 -0.06887626
0000e0 1d 03 ef bc 78 4c d0 3c fa db fb 3c 77 2a 34 bd
       -0.02917629 0.025427088 0.030744541 -0.04398581
0000f0 ef 77 55 3b dd 88 8c bc 6a ab 46 bd ef ab 57 bd
       0.0032572707 -0.017155105 -0.048503317 -0.052654203
000100 7e c0 84 bd 0e a9 40 3d e5 9d 14 3d 64 e1 3e 3d
       -0.064820275 0.047036223 0.036283392 0.046601668
000110 05 77 0e bd b0 29 0d bd be 52 73 bd ca 5a ff 3b
       -0.034781475 -0.034463584 -0.05940508 0.0077928053
000120 60 a4 d4 3c 9f 3e 95 3c 21 1e 7a bd 19 93 23 bd
       0.025957286 0.018218337 -0.06106389 -0.039935205
000130 84 68 06 3d 96 e6 94 bd 3d f4 95 bc 66 f7 1f bc
       0.032814518 -0.07270543 -0.018304938 -0.009763574
000140 71 52 04 bd 5c e9 99 bd ec 0a 02 bb 2e 64 c4 bc
       -0.032305185 -0.07515213 -0.0019842936 -0.02397355
000150 c7 16 b5 3d 40 ed db bc 8a 90 fb bc 15 b6 ad 3c
       0.08842235 -0.026846528 -0.03070857 0.021204988
000160 96 b5 42 bd 19 55 90 bc 80 32 8c bd 65 ef 15 bd
       -0.047536455 -0.017618703 -0.068455696 -0.036605258
000170 b8 f5 b0 bd dd 3c 78 bd b7 c3 74 3d 02 08 28 bd
       -0.08640617 -0.06060492 0.05975696 -0.04102326
000180 f8 62 8a 3d e8 65 89 3d 82 3c 94 bd f1 0e fb 3b
       0.06757158 0.0670889 -0.072381034 0.0076616933
000190 3b 7f 8c 3d 5a fe 68 bc aa 7a 02 3c de 71 8c bd
       0.06860205 -0.014220798 0.007963816 -0.06857656
0001a0 52 06 9b 3c a4 c1 81 3d ef a8 af bd 16 94 e1 bb
       0.018923912 0.06335762 -0.085771434 -0.0068841083
0001b0 8f 40 93 3c 8b 4a 41 bd ea 44 1e bd 18 71 64 bc
       0.01797512 -0.04719023 -0.03863994 -0.013942979
0001c0 23 bc a2 3c e4 40 24 3d 6b 98 73 bd 25 d7 6b bd
       0.019865101 0.040100947 -0.05947153 -0.057578225
0001d0 55 63 a9 3c 18 b5 21 bc ee 0b b8 3d 57 8e a3 bc
       0.020677248 -0.009869836 0.089866504 -0.019965334
0001e0 68 95 98 3c 80 83 80 3d 24 3e b2 bc fd fb 3c bd
       0.01862593 0.06275082 -0.021758147 -0.046138752
0001f0 8e 46 e6 3c 93 30 b4 bc 28 8f ef 3c 64 6c 42 3d
       0.028109815 -0.021995818 0.029243067 0.04746665

rnn.bias_hh_l0 f4 [128]
000000 7f 4e 96 3c a4 5f fb 3c cc 9d 55 3d 1a f3 35 3c
       0.018347977 0.030685253 0.05215244 0.011105323
000010 b5 73 8b bc 36 dd 57 3c e1 35 58 3c 73 65 98 3d
       -0.017022947 0.013175299 0.0131964395 0.07441225
000020 4c a3 92 3d f9 09 76 bd e6 10 7a 3c d2 4f 6b bd
       0.07160053 -0.060068104 0.015262818 -0.05744917
000030 a4 2d 34 bd c2 42 d2 ba 76 90 c2 3a 45 97 14 3d
       -0.04398884 -0.0016041624 0.0014844078 0.036277074
000040 20 53 88 bd cf c5 1c 3d b5 d4 4f bc 1c 5e f3 bc
       -0.0665648 0.038274582 -0.012684991 -0.02970796
000050 57 64 61 bd 48 30 ae bc e7 f4 56 3c 1e f4 94 bb
       -0.055027332 -0.021263257 0.013119913 -0.0045457026
000060 6f 84 f7 bc 9a b4 d4 3c 29 a3 97 bb 91 07 b5 bc
       -0.030214516 0.025965024 -0.0046276045 -0.022098335
000070 26 65 0f bd 5c 7a 9a bb 18 b8 12 bd f4 02 84 3d
       -0.035008572 -0.0047142934 -0.035820097 0.06445876
000080 82 53 59 bd a6 b6 29 bd 54 46 26 3c b5 9f 84 bd
       -0.053058155 -0.041433953 0.0101486035 -0.06475774
000090 43 db 89 3c e9 7c 91 3c 4b 4e bd 3c df f6 63 3b
       0.016828185 0.017759757 0.023108622 0.0034784598
0000a0 6c 8d 90 3d 5a d5 78 3d c5 38 08 3d 0e ec ab 3d
       0.07058224 0.060750343 0.033257265 0.08394633
0000b0 d2 fc 7d bd 0f 6e a6 3a 25 84 a3 bc 8f 72 2f 3b
       -0.062008686 0.0012697595 -0.019960472 0.0026771163
0000c0 e8 01 7c 3c e5 29 ef 3c 26 a8 80 bd 1a af 1c 3b
       0.015381314 0.029194782 -0.06282072 0.002390808
0000d0 e2 32 31 bd fe 18 ae bc 89 af 9d bc 74 68 15 3d
       -0.043261416 -0.021252152 -0.01924874 0.036476567
0000e0 ea 03 32 3c 13 04 cf bc 50 9b c6 3c 6b b5 fb bc
       0.010865191 -0.025270497 0.02424398 -0.030726155
0000f0 08 d5 1c 3d 79 d1 c3 bc d4 e1 19 bd a9 65 b4 3d
       0.0382891 -0.023903595 -0.037568882 0.08808453
000100 4b 35 66 3d c8 9e 57 3d 3e 6f 74 3b e0 d8 eb 3c
       0.056203168 0.05264166 0.003729775 0.028789937
000110 b2 f6 5d 3d 9a 04 68 3d 2b 86 9b 3d 22 45 5e 3d
       0.054190345 0.056645013 0.0759395 0.05426515
000120 07 4a 51 3b 5f 71 6f bd 30 01 86 3d 39 ed 31 3d
       0.0031934993 -0.05845773 0.06543195 0.043439124
000130 ca e7 31 3d 9a ec 96 3d 37 d4 24 bc c3 63 ab bb
       0.043433942 0.07369347 -0.010060362 -0.0052303984
000140 f2 f2 42 3c 1f 5e a5 3d 86 65 09 bd 0d 34 44 3d
       0.011898743 0.08074593 -0.033544086 0.047901202
000150 17 2d d0 bc b5 98 46 bc b0 89 11 3d 9e 6d b7 3a
       -0.025412126 -0.012121369 0.0355317 0.001399446
000160 f6 39 48 3c bc 3c 89 ba fe 92 03 bd a8 8a 1e bd
       0.01222085 -0.0010470371 -0.032122605 -0.03870645
000170 7f b5 d9 3c ef 2a 42 bd 51 46 d1 bd 45 0c 5b 3d
       0.026575802 -0.047404226 -0.1021849 0.053478498
000180 4a 92 60 bd 5b ad 01 bd e3 a6 90 3d b7 12 1b bd
       -0.054827012 -0.031659465 0.07063081 -0.037859645
000190 da 07 ad bd 25 9e ee bc 2d 5e 85 3d 3b d9 0a 3d
       -0.08448763 -0.029128144 0.06512103 0.033898573
0001a0 3a e4 a4 3d 35 ce 57 bc 1e 9a 42 3d 6d f3 88 3c
       0.08051343 -0.013171722 0.04751026 0.016717637
0001b0 60 4e e1 bc 07 7f c7 bc e7 2d 06 bd c7 f8 04 3d
       -0.027503192 -0.024352564 -0.03275862 0.032463815
0001c0 7c 44 69 3c 77 f4 ac bd 90 7e 17 bd 12 4b 6d 3d
       0.014237519 -0.084450655 -0.036985934 0.05793292
0001d0 bc e6 85 bb 1e a0 d9 bb 76 ef 45 bb a3 1e a8 3c
       -0.0040863436 -0.006641402 -0.0030202544 0.020522421
0001e0 6e 4d 5b bd 20 50 b4 bd c1 ac 17 bd 1d 86 2d bd
       -0.05354064 -0.08804345 -0.037029985 -0.04236423
0001f0 d0 0f 85 bd e1 a7 11 bd a0 c1 5b bd 87 d8 88 bd
       -0.064971566 -0.035560492 -0.053651452 -0.06681924

fc.weight f4 [2, 128]
000000 64 e6 75 39 9d 34 e0 3c cf 05 9a 3d 9d ee 69 3d
       0.00023450848 0.027368838 0.07520639 0.057112325
000010 a2 3a 5f 3d 09 c9 36 3d bd 9b 43 3d 2a c8 10 bd
       0.054499276 0.044625316 0.047755945 -0.03534714
000020 20 98 8c bd 2b 1b 20 3d 34 b6 57 3d 87 38 db bc
       -0.06864953 0.03908841 0.052663997 -0.026760353
000030 8d a0 34 bc 33 d3 20 3d 11 eb 92 3b 70 d9 fb 3c
       -0.011024606 0.039263915 0.0044835885 0.03074333
000040 a4 0b 88 bd 0f da db bc 86 20 1c bc 46 dd 86 3d
       -0.06642845 -0.026837377 -0.009529239 0.06585173
000050 e3 07 00 bd 65 4e 2c bd 8b 0b 3c bd 47 b1 0f 3d
       -0.03125752 -0.04206695 -0.045909446 0.035081174
000060 87 cf ff bc a4 21 04 3d eb df 60 3d 9b 9d 5f 3d
       -0.031226886 0.032258645 0.054901045 0.054593664
000070 e7 4e c2 3d 24 6c ae bc 42 d4 11 bc fe d5 22 bd
       0.09487706 -0.0212918 -0.008900704 -0.03975486
000080 3d 4a 24 3d 6d 97 df bc 52 c0 49 bd 48 7c a5 3d
       0.04010986 -0.027293885 -0.049255677 0.080803454
000090 de b7 08 3d 0c 00 28 3d 2d 32 91 3d a1 24 23 bd
       0.033378474 0.04101567 0.070896484 -0.039829854
0000a0 fc 99 4f bd 2b 5e 28 3c 82 63 27 bc 9b f8 99 bc
       -0.05068396 0.010276358 -0.010216596 -0.018795302
0000b0 42 21 b5 bc b4 5c db bb d6 40 d3 bc 71 c9 21 bd
       -0.022110585 -0.0066944007 -0.025787752 -0.03949875
0000c0 97 d8 59 3d 1b c5 ed bc b4 89 a6 3b 5a 63 d0 bb
       0.05318507 -0.029024651 0.0050823335 -0.0063595
0000d0 5c 0a dd 3c 0d 9e a1 3d 6e 2c c4 bc 7a 3a 6f 3b
       0.026982479 0.07891474 -0.023946967 0.003650336
0000e0 68 7d b1 3d 61 7b dd bc 81 0b b1 bd b5 e6 76 3d
       0.086664975 -0.02703637 -0.08644772 0.060278613
0000f0 ed 35 38 bc 67 7f 41 bc b1 1c 9b bc f9 e8 a2 bd
       -0.011243326 -0.01181016 -0.01893458 -0.07954592
000100 e0 1a 68 3d 44 19 a1 bc e5 04 88 3d 69 19 a1 3c
       0.056666255 -0.019665368 0.066415586 0.019665437
000110 b9 66 7e bd a8 15 ba bd 7c 20 8f bd 8c 46 89 3c
       -0.062109683 -0.09086162 -0.06988618 0.016757272
000120 f1 0e 92 bc 8a 8f 6e bd d6 fc 3f 3d f5 63 02 bd
       -0.01782939 -0.05824236 0.046871983 -0.031833608
000130 1b 6b 20 3d 98 26 24 3d bc b0 5e bd 10 a0 65 3c
       0.039164644 0.04007587 -0.054367766 0.014015213
000140 cd 6f 19 bd 52 c5 b9 bc b1 52 5a 3d 18 24 67 bd
       -0.037460137 -0.022677097 0.053301517 -0.056430906
000150 da 54 4a 3d 1a c0 54 3c ff 3e 68 bd 17 1e 8e 3d
       0.049397327 0.012985254 -0.056700703 0.06939333
000160 b9 9a 1f 3b 99 30 73 3c 59 80 a4 bc 18 21 2e bd
       0.0024353696 0.01484313 -0.020080732 -0.04251203
000170 70 29 82 3d 66 da e5 3c 48 29 76 bd ec ae 52 bd
       0.0635556 0.028058242 -0.060097963 -0.05143635
000180 a6 b6 62 bc 40 82 44 3d 73 f4 da bc 73 f1 1d bc
       -0.013837492 0.04797578 -0.02672789 -0.0096400855
000190 58 07 58 bd 26 e0 8b 3c 78 55 cc bc 27 47 15 bb
       -0.05274138 0.017074656 -0.024943098 -0.0022778006
0001a0 26 7c 40 3c f5 6f 8e bd f4 6a 84 bd b8 0c 9f bc
       0.011748349 -0.06954948 -0.06465712 -0.019415244
0001b0 5c 55 23 b8 f3 bc 53 3c 40 f3 5c 3c f2 1b c7 bc
       -3.8941726e-05 0.012923467 0.01348573 -0.024305318
0001c0 7a 4c 5c 3d 1e 70 87 bd ca eb 40 bb 71 16 4b bd
       0.05378387 -0.066131815 -0.0029437416 -0.04958195
0001d0 e6 68 63 bc c4 95 41 3c 0d 98 bf 3d a1 c4 68 bd
       -0.01387999 0.011815492 0.09355173 -0.056828145
0001e0 6b 83 b2 3c c7 b3 8d bd 7a a2 83 bd dd 1b 05 bd
       0.02179118 -0.069190554 -0.06427474 -0.032497276
0001f0 a7 57 91 3d 4d 46 11 3d 05 c5 19 bb bf 44 66 3d
       0.070967965 0.035467435 -0.002346338 0.056217905
000200 01 ae a7 3b bd 5f 02 bd cd ab 6f bb 0f c4 ff 3c
       0.0051171784 -0.031829584 -0.0036570907 0.031221418
000210 b1 12 fd 3c 1a 5c fc bb 56 4b 87 bd 70 38 55 bb
       0.030892702 -0.007701409 -0.06606166 -0.003253486
000220 18 e5 c1 3b 88 93 ab 3d 48 26 86 bd 7f 5b 21 3d
       0.0059172027 0.08377749 -0.0655027 0.039393898
000230 76 d7 3c 3d bb 77 18 bb c4 7a 62 3c 31 4d d1 3c
       0.046103917 -0.0023264724 0.013823215 0.025549503
000240 64 39 1d 3c c8 f7 c8 bd 4c 19 01 3d fa 13 96 3d
       0.0095962025 -0.098128855 0.031518266 0.07328029
000250 bb 7a 3a bd fd b0 97 3c d2 77 38 bd 25 cf 79 3d
       -0.0455272 0.018517012 -0.045036145 0.060988564
000260 51 41 06 3d 32 16 54 3d 01 74 52 bd 64 65 e1 3c
       0.032777134 0.05177898 -0.05138016 0.027514167
000270 13 b9 97 3b a0 57 83 bc ec 80 b6 bd 1f 50 87 3d
       0.004630217 -0.016032994 -0.08911309 0.06607079
000280 02 cc 7f bc 12 87 87 bd 6e 71 0b bd e3 36 dc 3c
       -0.015612604 -0.066175595 -0.03404372 0.02688164
000290 64 9c d7 3c 63 b2 b9 bc 58 cf 16 3b 05 c7 d0 3c
       0.02631969 -0.02266807 0.002301177 0.025485525
0002a0 4d d3 57 bd b3 e4 a6 3c c4 4d fc 3c d6 41 27 bd
       -0.052691747 0.020372724 0.0307988 -0.04083427
0002b0 19 4a 28 3b 83 4c 1a bd 3e f3 6b bd df 63 98 bb
       0.0025678931 -0.037670624 -0.05760502 -0.0046505774
0002c0 d4 66 b0 3d 3a 5a 32 bd 37 5b 95 3d 69 c6 92 bd
       0.08613363 -0.043543078 0.072927885 -0.0716675
0002d0 6a d4 54 bd 5e a7 a7 bd 9d 2a bf bc e6 e4 82 3d
       -0.051960386 -0.0818622 -0.02333575 0.06391315
0002e0 69 9d 04 bc a5 7a 1e 3d 23 77 f1 bc 20 25 50 3d
       -0.00809417 0.03869118 -0.029475754 0.050816655
0002f0 0d c1 33 bd fc d6 0a bd aa 76 8e bd 13 f4 51 bd
       -0.04388528 -0.03389643 -0.06956227 -0.051258158
000300 70 f5 68 bd 00 b9 41 3c 0a dc 4e 3d a2 f6 27 bd
       -0.056874692 0.011823893 0.050502814 -0.04100669
000310 24 f2 7b bd 10 d2 33 bd 2b cb 42 3d b4 af 26 bd
       -0.06151022 -0.043901503 0.047557037 -0.040694907
000320 de 79 4f bc ce 80 a8 bd d4 6f 09 3d 73 2a 0a 3d
       -0.012663333 -0.082276925 0.033553913 0.03373189
000330 37 31 d0 bb 09 9e 37 3d 25 2b 87 bd f1 e5 27 3d
       -0.006353523 0.04482845 -0.06600026 0.040990774
000340 3e 36 19 3d fe 51 2a bd c6 00 b9 3c a0 c7 1a bc
       0.037405245 -0.0415821 0.022583377 -0.009447008
000350 0e 47 91 bd 26 3a 16 bb 5b d8 5b 3d 79 0f 08 3d
       -0.07093631 -0.0022922843 0.05367313 0.03321788
000360 53 8c ba bc 6e 87 07 bd 1e 82 d2 3c da f8 58 3c
       -0.02277199 -0.03308814 0.02569681 0.013242925
000370 4d 26 31 bd 15 ae d4 3d da 46 85 bc e6 12 a3 bd
       -0.043249417 0.10384766 -0.016269136 -0.07962589
000380 31 a3 a5 3d bf b2 14 3d 33 43 d1 bc 33 34 82 3c
       0.08087767 0.036303278 -0.025544738 0.015894031
000390 b5 af 91 bd ad ee e1 bb eb f5 79 bd e5 7c 13 bc
       -0.071135916 -0.0068949074 -0.06102554 -0.009001945
0003a0 f9 ac fb bc d0 8e 4c 3c 50 a9 91 3b 19 5a 34 3c
       -0.030722128 0.012485221 0.0044452325 0.011007809
0003b0 19 1d e4 3c 95 e1 72 3d 25 6a 21 3d 4a f4 32 3c
       0.027845906 0.059297163 0.039407868 0.010922501
0003c0 ee 21 29 3d ea f8 85 bc 75 f2 08 bd ec f2 15 bc
       0.041292123 -0.016354043 -0.03343435 -0.009152155
0003d0 41 61 3f bd 31 36 ad 3c ed 58 f3 3c f4 5f 42 3d
       -0.046723608 0.021144005 0.029705489 0.04745479
0003e0 14 f6 f7 bc 07 30 23 bd 6b d4 75 bd 9c 1a 6f 3c
       -0.030268706 -0.039840724 -0.06001703 0.0145937465
0003f0 64 dd 72 3d f9 b0 ba bc 55 11 0f bd 84 3d 95 3d
       0.059293166 -0.022789465 -0.03492864 0.07287124

fc.bias f4 [2]
000000 c3 82 40 3c 5f 55 fa 3c
       0.011749926 0.030558286
